TinySpeechTrainer-models-20231102.tgz/model.tflite (tflite, 56680 bytes, 8 tensors)

sequential_8/conv2d_Conv2D15/BiasAdd/ReadVariableOp f4 [16]
-0.0007964864 -0.021887446 -0.02302561 -0.023484968 -0.008313852 -0.020200092 -0.016892154 -0.0035674346
-0.04439127 -0.015892424 -0.035277817 0.0012022874 0.0028840015 0.0053098565 -0.0052320063 -0.015985493
00000000: 4ccb 50ba 4d4d b3bc 34a0 bcbc 8c63 c0bc
00000010: d336 08bc aa7a a5bc 6a61 8abc 9fcb 69bb
00000020: 9fd3 35bd d430 82bc 797f 10bd 1296 9d3a
00000030: 8401 3d3b 4efe ad3b 4071 abbb 02f4 82bc

sequential_8/conv2d_Conv2D16/BiasAdd/ReadVariableOp f4 [32]
-0.027749764 -0.021947607 0.012952989 -0.006023007 0.008431402 -0.035842147 0.06893794 0.007148942
-0.006282874 -0.029222948 -0.04736315 0.0933664 -0.018751292 0.06648146 -0.014285228 -0.041835126
-0.0776956 -0.011888897 -0.006457111 -0.06585743 0.05696298 0.011609348 -0.04256672 -0.033492703
0.03707891 -0.09697085 -0.0071397177 -0.04563855 0.02090976 0.050902713 0.0060600885 -0.016173627
00000000: 7953 e3bc 78cb b3bc c638 543c a55c c5bb
00000010: dd23 0a3c 37cf 12bd 562f 8d3d ac41 ea3b
00000020: 91e0 cdbb f764 efbc ddff 41bd e236 bf3d
00000030: 4f9c 99bc 6f27 883d 970c 6abc 4f5b 2bbd
00000040: df1e 9fbd a6c9 42bc 2c96 d3bb 43e0 86bd
00000050: 0452 693d 2235 3e3c 715a 2ebd a52f 09bd
00000060: 0ee0 173d a798 c6bd 4bf4 e9bb 7def 3abd
00000070: f24a ab3c 5d7f 503d b593 c63b 8e7e 84bc

sequential_8/conv2d_Conv2D15/Conv2D f4 [16, 3, 3, 1]
-0.05595011 -0.0225215 0.38180378 0.08057255 0.04075515 0.26219958 -0.03975145 -0.20486282
-0.004656515 0.20444241 0.2891237 -0.20621148 0.009031901 0.2610807 -0.051412012 -0.107751235
0.14769547 0.058505036 -0.045787893 -0.040486157 -0.0044099144 0.36315894 0.30713898 -0.09594743
0.35283124 0.33590952 0.056282137 0.08696842 0.14695935 0.31407925 0.045196947 0.0139728375
0.4470783 0.078300245 0.14679976 0.20174345 0.21825308 0.0772012 0.11487721 -0.07025084
-0.212975 -0.16301167 0.34465867 -0.20929703 0.11093673 -0.098666325 -0.0028777265 -0.024242863
0.08669432 0.15850142 0.258278 0.06844041 0.061976124 0.44400296 -0.033435445 0.02743391
0.37642428 -0.019556513 0.16376032 0.23087089 -0.051480513 0.2722412 0.31653717 -0.018254943
0.102997236 -0.13170299 -0.09178354 0.17664535 -0.006082149 -0.17795002 0.20909747 0.025817284
0.020468898 0.029009668 0.10726276 -0.06291494 0.15505116 -0.14523837 -0.05287292 -0.07736851
-0.20795025 -0.087185554 0.037225228 0.10601264 -0.2048118 0.43842188 0.11534643 -0.025947727
0.25949028 0.23714805 0.20756136 -0.010418281 -0.0046699555 0.47226885 0.021442039 0.069313295
0.17235795 0.38606858 -0.030013107 0.09999933 -0.069794886 0.22491015 0.025287673 -0.22890684
0.3582942 -0.12292243 -0.09589092 -0.022593502 0.2869678 -0.17398448 -0.21448037 0.21182823
-0.11215484 -0.23627694 0.12801366 0.19665089 -0.28803405 -0.111747 0.0125173535 -0.12437155
-0.11486578 0.07748488 0.09714989 0.35583663 -0.27929252 -0.30228612 0.10805128 -0.26922804
0.21315806 0.3163274 -0.17854206 0.19203417 -0.058010172 -0.15390465 -0.071898416 -0.044049535
-0.022835048 0.1896464 0.11307703 -0.16391496 0.28576118 0.0141044175 0.1832076 0.29229406
00000000: f12b 65bd 027f b8bc c97b c33e 3903 a53d
00000010: dfee 263d 063f 863e 6bd2 22bd 8fc7 51be
00000020: ae95 98bb 5a59 513e 0608 943e 1a29 53be
00000030: 8afa 133c 5fac 853e 6795 52bd aeac dcbd
00000040: 7b3d 173e faa2 6f3d 168c 3bbd d0d4 25bd
00000050: 0b81 90bb f8ef b93e 5241 9d3e 1680 c4bd
00000060: 4ca6 b43e 55fc ab3e 1988 663d 801c b23d
00000070: 837c 163e ffce a03e 6f20 393d 54ee 643c
00000080: 72e7 e43e e15b a03d ad52 163e d695 4e3e
00000090: bc7d 5f3e aa1b 9e3d be44 eb3d acdf 8fbd
000000a0: 1e16 5abe 88ec 26be 1a77 b03e f651 56be
000000b0: cc32 e33d 9211 cabd 3d98 3cbb f898 c6bc
000000c0: cb8c b13d 324e 223e 043d 843e 7c2a 8c3d
000000d0: adda 7d3d 5b54 e33e 9bf3 08bd 14bd e03c
000000e0: afba c03e fb34 a0bc c9b0 273e 6b69 6c3e
000000f0: 3bdd 52bd 3363 8b3e 2911 a23e 648b 95bc
00000100: 37f0 d23d 26dd 06be 02f9 bbbd 85e2 343e
00000110: c44c c7bb 8838 36be a61d 563e c57e d33c
00000120: 64ae a73c afa5 ed3c 94ac db3d 8cd9 80bd
00000130: bbc5 1e3e 5eb9 14be 4691 58bd 6273 9ebd
00000140: e9f0 54be 578e b2bd 7b79 183d 281d d93d
00000150: 2fba 51be d578 e03e c03a ec3d 5490 d4bc
00000160: e9db 843e f0d6 723e f78a 543e 70b1 2abc
00000170: 6d06 99bb 39cd f13e 37a7 af3c 21f4 8d3d
00000180: 9a7e 303e c8aa c53e 0cde f5bc 73cc cc3d
00000190: 9ff0 8ebd d94e 663e 1828 cf3c 8e66 6abe
000001a0: 5672 b73e c1be fbbd 7562 c4bd 0216 b9bc
000001b0: 72ed 923e fd28 32be bea0 5bbe 80e9 583e
000001c0: 70b1 e5bd 95f2 71be 0316 033e da5e 493e
000001d0: 3379 93be 9cdb e4bd 9615 4d3c 83b6 febd
000001e0: c03e ebbd 65b0 9e3d 86f6 c63d 3830 b63e
000001f0: 6eff 8ebe 3fc5 9abe fd49 dd3d 42d8 89be
00000200: 1b46 5a3e aaf5 a13e bbd3 36be 9ba4 443e
00000210: 139c 6dbd 2e99 1dbe 7a3f 93bd 496d 34bd
00000220: 9110 bbbc aa32 423e ee94 e73d 53d9 27be
00000230: 4a4f 923e 3716 673c c69a 3b3e 91a7 953e

sequential_8/conv2d_Conv2D16/Conv2D f4 [32, 3, 3, 16]
-0.01886402 0.08982689 -0.030560942 0.060948 0.022604175 0.013577818 0.026690757 -0.0072198743
0.050423767 0.024602497 -0.0037111707 -0.01877122 -0.10494531 -0.042158272 -0.105684474 0.028067898
-0.10255249 -0.007554865 0.13524896 0.13237219 -0.052585967 0.04362624 -0.10683774 0.05595854
0.091496445 0.03638488 0.16606298 -0.07133847 0.09905194 0.08826529 0.041784003 0.019029753
0.06750262 -0.09968456 -0.057007786 -0.054471675 -0.11517584 -0.017527321 -0.021008385 -0.051761806
0.07587193 0.043768816 -0.0146960355 0.042431176 0.07508954 0.0054932153 -0.02755388 0.029300818
-0.0152134895 -0.12320994 0.013043526 -0.0022221478 0.0027041093 0.008151871 0.10123794 0.044329364
-0.040877078 0.12836833 0.0746352 0.07357802 -0.14314325 0.051171657 -0.005224303 -0.048136096
-0.0069213663 0.046379868 0.15297656 0.15022285 0.12871051 0.16448003 -0.024874253 -0.0789901
-0.03977181 -0.12211303 0.06218624 -0.12512593 -0.066011585 0.0026017241 -0.058875825 -0.08885682
0.060230512 -0.028638806 0.018872725 0.030810552 -0.05463716 -0.054198 0.07596966 -0.027630188
-0.055291686 0.03365369 0.111940406 -0.076372094 0.020353286 -0.04680254 -0.10553042 -0.10150582
0.15943196 -0.059019662 -0.06772847 0.061857663 -0.020562256 0.0767223 -0.057195906 -0.06970595
0.092874885 0.053644363 -0.048825778 -0.15137623 -0.0066874283 -0.04408083 0.07733586 -0.026656555
0.02226458 -0.017023452 -0.03737413 0.059145663 -0.04002324 0.084666505 0.051448073 -0.03941337
0.052204903 -0.019992892 -0.07903809 0.026737694 -0.0801897 -0.049318906 -0.018816872 -0.08676835
0.09565293 -0.10244243 -0.11810393 -0.053207394 -0.0866058 -0.06094549 -0.13811457 -0.053729296
0.048287783 -0.025265563 0.014798165 0.023075892 0.12207272 0.050718907 -0.024858568 -0.15365577
0.031318586 0.06278817 -0.056742154 -0.09315366 -0.03789837 -0.10036538 -0.026679581 -0.049199283
-0.120510384 0.03432234 0.05349908 -0.093296744 -0.08313288 -0.023686502 -0.033022795 0.06861005
0.053363163 -0.09115006 0.01335811 -0.05419786 0.060516767 -0.06989147 -0.06260241 0.0010955686
0.01517155 0.057477485 -0.076676846 0.015330345 -0.06370116 0.06722418 -0.02777728 -0.012661591
0.020245317 0.064959176 0.04855401 0.013639053 -0.0346619 0.03904567 -0.040060706 -0.08284785
-0.008709319 -0.05109798 0.0045331805 -0.019434717 -0.021137819 -0.01057974 -0.12049749 -0.092860214
0.11405788 0.014509444 -0.0054784417 0.019041387 0.009043827 -0.042619746 -0.048242092 -0.035633195
0.042700924 -0.10386072 -0.076582275 -0.122092485 0.030131172 -0.010828623 0.015036753 0.010757941
0.057994038 0.028324746 0.08823016 0.0011213667 -0.04887591 0.036015525 -0.021790234 0.007440489
-0.06010841 -0.0069556674 -0.083663106 0.08108046 0.094054 -0.033817004 0.09596796 -0.0013611144
-0.06400706 -0.0040782797 -0.057583254 0.033537634 -0.015360477 -0.028894607 0.037646253 0.0690527
0.1138854 0.03927567 -0.058478884 -0.01966399 0.023267215 -0.0058583007 -0.046178725 0.034313627
0.061256457 -0.033486553 -0.038186044 -0.006540192 -0.027176924 -0.069297425 -0.044419084 0.08259583
0.06548226 0.046135172 0.02778098 -0.005707798 0.0025435819 0.01648934 -0.0664587 0.037661843
00000000: b888 9abc 29f7 b73d f15a fabc 9ca4 793d
00000010: 642c b93c 7f75 5e3c 93a6 da3c b294 ecbb
00000020: 2789 4e3d 2d8b c93c 1d37 73bb 1ac6 99bc
00000030: 91ed d6bd 27ae 2cbd 1a71 d8bd a6ee e53c
00000040: 0a07 d2bd cd8e f7bb b47e 0a3e 938c 073e
00000050: 6264 57bd 6eb1 323d bfcd dabd c834 653d
00000060: 7d62 bb3d 5008 153d 6a0c 2a3e e719 92bd
00000070: bedb ca3d 6fc4 b43d b425 2b3d 49e4 9b3c
00000080: d03e 8a3d 6b27 ccbd ff80 69bd b11d 5fbd
00000090: 50e1 ebbd 7595 8fbc c719 acbc 3004 54bd
000000a0: be62 9b3d ee46 333d a4c7 70bc 50cc 2d3d
000000b0: 8bc8 993d 6e00 b43b adb8 e1bc 4508 f03c
000000c0: 0042 79bc 7e55 fcbd 83b4 553c 74a1 11bb
000000d0: 6d37 313b 6d8f 053c d655 cf3d b592 353d
000000e0: b96e 27bd fd72 033e 57da 983d 13b0 963d
000000f0: 2594 12be 5f99 513d a130 abbb 5b2a 45bd
00000100: a1cc e2bb d1f8 3d3d e3a5 1c3e 05d4 193e
00000110: b0cc 033e 746d 283e 17c5 cbbc 90c5 a1bd
00000120: c4e7 22bd 6516 fabd 00b7 7e3d 0321 00be
00000130: 1531 87bd b081 2a3b c727 71bd 90fa b5bd
00000140: 45b4 763d ee9b eabc f99a 9a3c 6966 fc3c
00000150: 37cb 5fbd b9fe 5dbd fb95 9b3d b458 e2bc
00000160: 8979 62bd 74d8 093d 0341 e53d f968 9cbd
00000170: efbb a63c 05b4 3fbd 5520 d8bd 49e2 cfbd
00000180: 2242 233e 9abe 71bd 39b5 8abd 765e 7d3d
00000190: 2d72 a8bc 9520 9d3d 4146 6abd fec1 8ebd
000001a0: 3035 be3d 31ba 5b3d 8afd 47bd 5f02 1bbe
000001b0: 3722 dbbb 1a8e 34bd 4362 9e3d d95e dabc
000001c0: 3564 b63c c474 8bbc 9e15 19bd b942 723d
000001d0: 69ef 23bd a265 ad3d 37bb 523d ea6f 21bd
000001e0: cfd4 553d 22c8 a3bc b9de a1bd 0209 db3c
000001f0: 7f3a a4bd 9f02 4abd d725 9abc 9bb3 b1bd
00000200: afe5 c33d 56cd d1bd 79e0 f1bd ffef 59bd
00000210: 625e b1bd faa1 79bd e86d 0dbe 4013 5cbd
00000220: 69c9 453d baf9 cebc 0174 723c a709 bd3c
00000230: 4301 fa3d a1be 4f3d 32a4 cbbc f057 1dbe
00000240: eb47 003d 1697 803d 766a 68bd 59c7 bebd
00000250: 523b 1bbd 5d8c cdbd 238f dabc 3085 49bd
00000260: 26ce f6bd 9595 0c3d da21 5b3d 5d12 bfbd
00000270: 9241 aabd 320a c2bc e942 07bd 6d83 8c3d
00000280: 5593 5a3d e2ac babd f9db 5a3c 93fe 5dbd
00000290: 6ee0 773d 4223 8fbd b135 80bd 2f99 8f3a
000002a0: 1892 783c 836d 6b3d c008 9dbd 212c 7b3c
000002b0: c175 82bd d5ac 893d 2e8d e3bc 9072 4fbc
000002c0: 82d9 a53c 5109 853d 92e0 463d 5676 5f3c
000002d0: a3f9 0dbd 5aee 1f3d b216 24bd 22ac a9bd
000002e0: 88b1 0ebc 1e4c 51bd 138b 943b 8e35 9fbc
000002f0: 3829 adbc a556 2dbc 63c7 f6bd 7f2d bebd
00000300: 2e97 e93d 05b9 6d3c 8084 b3bb affc 9b3c
00000310: 8f2c 143c 0b92 2ebd 8099 45bd 1df4 11bd
00000320: 2ae7 2e3d eeb4 d4bd 2bd7 9cbd a00b fabd
00000330: a6d5 f63c 896a 31bc b75c 763c 1342 303c
00000340: 288b 6d3d 4c09 e83c 04b2 b43d d3fa 923a
00000350: 1b32 48bd 0485 133d 6f81 b2bc 58cf f33b
00000360: 3c34 76bd 5eec e3bb 9057 abbd 830d a63d
00000370: 629f c03d b383 0abd da8a c43d 6c67 b2ba
00000380: 2216 83bd 17a3 85bb 6bdc 6bbd c25e 093d
00000390: 83aa 7bbc 62b4 ecbc f532 1a3d 816b 8d3d
000003a0: c03c e93d 86df 203d 8e87 6fbd 6016 a1bc
000003b0: e39a be3c fdf6 bfbb e725 3dbd 728c 0c3d
000003c0: 0de8 7a3d 3229 09bd f868 1cbd 1b4f d6bb
000003d0: 24a2 debc cfeb 8dbd c9f0 35bd 0128 a93d
000003e0: 901b 863d 3cf8 3c3d f094 e33c 7b08 bbbb
000003f0: 39b2 263b a714 873c 801b 88bd 4e43 1a3d

sequential_8/dense_Dense16/BiasAdd/ReadVariableOp f4 [3]
-0.013906502 -0.034255203 -0.11317249
00000000: 19d8 63bc 2f4f 0cbd fac6 e7bd

sequential_8/dense_Dense15/BiasAdd/ReadVariableOp f4 [64]
-0.058053732 0.10541832 0.12205879 -0.018381236 0.032778777 0.16144302 -0.041873977 0.058621686
0.049891062 -0.08843324 0.035166822 0.049453508 0.025879068 0.06499255 -0.05992859 -0.05858151
-0.099030405 -0.03417497 -0.015384645 -0.028008008 0.11015652 0.016747467 0.009131884 -0.009346138
0.040695645 -0.13195282 -0.008024214 0.047060646 0.046257704 0.019080032 0.043217074 0.091983356
0.0595439 0.029001428 0.012662865 0.055314217 0.026570452 0.048981186 0.017655594 0.023145825
0.004933366 0.08689178 0.063207634 0.040734053 -0.018194202 0.054683633 0.03746969 -0.015281001
0.006794151 -0.029449945 0.033504136 -0.0013464021 0.0924166 0.044441063 0.009986499 -0.053803876
0.012829299 0.005382387 0.051456813 0.052356202 0.090112284 0.05996827 -0.02869268 0.02862441
00000000: c0c9 6dbd 8fe5 d73d f5f9 f93d 3f94 96bc
00000010: 0a43 063d 5251 253e 0c84 2bbd 4b1d 703d
00000020: 925a 4c3d 7d1c b5bd 160b 103d c38f 4a3d
00000030: 5700 d43c d01a 853d ae77 75bd 2af3 6fbd
00000040: 74d0 cabd 0efb 0bbd e10f 7cbc 0d71 e5bc
00000050: be99 e13d fc31 893c e69d 153c 8b20 19bc
00000060: 7ab0 263d a41e 07be fe77 03bc aac2 403d
00000070: b878 3d3d ba4d 9c3c 6304 313d c561 bc3d
00000080: 4ee4 733d 6794 ed3c e877 4f3c 2991 623d
00000090: 47aa d93c 7fa0 483d 77a2 903c 509c bd3c
000000a0: 13a8 a13b 51f4 b13d 0173 813d c0d8 263d
000000b0: 020c 95bc f2fb 5f3d d179 193d 2a5d 7abc
000000c0: 78a1 de3b 0341 f1bc a23b 093d c279 b0ba
000000d0: ea44 bd3d d507 363d 6a9e 233c 7461 5cbd
000000e0: fb31 523c bc5e b03b 61c4 523d 7573 563d
000000f0: ca8c b83d 4aa1 753d e90c ebbc bd7d ea3c

sequential_8/dense_Dense15/MatMul f4 [64, 128]
0.1730292 0.1676021 0.06290379 -0.0415168 -0.12805817 -0.12835656 -0.15435737 0.060241576
-0.03501599 0.029892072 0.06877205 -0.030544436 -0.13441527 -0.010335756 -0.022664396 -0.05226513
-0.0029434753 0.08398421 -0.08460851 -0.07373432 0.123078704 0.06806758 0.0629685 0.0025369476
-0.05056466 -0.06528816 0.023506392 0.021371195 -0.010782143 -0.12579605 -0.026620926 0.088751584
-0.032973155 -0.04694766 0.15351248 0.032218702 -0.082981065 0.11797342 -0.025096823 0.025446525
-0.032674 0.067116015 -0.070950046 -0.1465617 -0.10506846 0.079890594 0.029997133 -0.101154685
0.036201067 0.09922344 0.02300163 0.024744427 0.032510906 0.073629096 0.13403985 0.07816824
-0.104784936 -0.021550963 0.018607125 -0.007762438 -0.008077213 -0.038950514 0.0891072 0.10236393
-0.15253894 -0.09711977 -0.037724037 0.037054054 -0.057921115 -0.11883968 -0.08054289 -0.14217733
0.031244628 0.035063863 -0.051158514 -0.043136276 0.08519072 -0.110430285 -0.063510634 -0.0064598643
0.0893143 0.06343579 -0.04681565 -0.0659281 -0.00011423962 -0.12136845 -0.026561797 0.087772705
0.020340143 0.09413116 0.12995596 0.10873181 0.10214113 -0.03876796 -0.06128043 -0.057063807
-0.013862795 -0.039673276 -0.018763972 0.1687248 0.050540097 -0.073269814 -0.1167632 -0.013446445
-0.03367946 -0.031148868 0.069602825 -0.086175516 -0.092238255 -0.01411247 0.017671136 -0.018285455
0.08812433 0.0012376049 0.10396418 -0.06445535 0.029718049 0.04007664 0.019984324 0.058033302
-0.028053373 -0.009617483 0.02518072 0.02221024 0.1878846 0.056401834 0.15445112 -0.16702804
-0.093260795 0.12044776 0.16725664 -0.13932617 0.12137032 -0.030576542 -0.07164206 0.05185793
-0.08061059 -0.07733523 -0.002813585 0.11535713 -0.11816241 -0.01966971 0.11077225 -0.008728814
0.12770696 -0.012531284 0.2404233 0.025856739 0.08384509 0.071193956 0.041152317 -0.035970107
-0.009706268 0.1416654 0.06443826 -0.10498548 -0.06953347 0.2138691 -0.037724007 0.041179795
-0.06606378 0.10674446 -0.004818498 -0.06304811 0.06579711 0.19638859 0.02178918 -0.044541806
-0.13316242 0.12984933 -0.032124244 0.16084644 -0.07360031 -0.040524602 -0.051312607 0.067880966
-0.10993481 -0.11101573 0.0047440063 -0.015096139 0.10742037 -0.045499515 0.03931386 -0.058413263
-0.040958587 -0.038699053 0.08110679 0.08766854 0.11993994 0.01788474 -0.14836782 0.19313893
-0.079832464 0.17783175 -0.024982156 -0.1756683 0.035209455 -0.16624898 0.040927995 -0.09128128
0.034631494 -0.03808397 0.10016406 0.115530826 0.050640326 0.02626301 -0.13464002 0.08780992
0.095862605 -0.01619154 -0.09323846 -0.12200305 -0.11295516 0.114439145 0.115367696 -0.077067144
-0.101512305 0.11544619 0.1486086 0.043987725 -0.09550598 -0.048141614 0.14665808 0.007487974
-0.08973854 -0.031201053 -0.013023697 0.043496273 -0.10429881 0.10506594 -0.1074497 0.03981196
-0.07028016 -0.043923452 -0.0057006385 -0.0009438491 -0.06742866 -0.12095351 0.07112449 0.050580386
-0.044083644 0.026190422 -0.11149284 0.03219838 0.057158984 -0.06060575 0.19301346 -0.10425554
-0.033518586 0.0668866 -0.19416705 0.02857911 0.10727553 -0.051565796 0.08911694 0.0051361723
00000000: 912e 313e e39f 2b3e b4d3 803d 850d 2abd
00000010: ae21 03be e76f 03be dc0f 1ebe dfbf 763d
00000020: ed6c 0fbd 38e0 f43c 5cd8 8c3d 5338 fabc
00000030: 28a4 09be 4d57 29bc afaa b9bc f613 56bd
00000040: 52e7 40bb eaff ab3d 3a47 adbd 0502 97bd
00000050: b010 fc3d 0467 8b3d a1f5 803d eb42 263b
00000060: e41c 4fbd cdb5 85bd 7a90 c03c a512 af3c
00000070: 96a7 30bc aed0 00be 2114 dabc 64c3 b53d
00000080: dc0e 07bd 314c 40bd 6032 1d3e c2f7 033d
00000090: faf1 a9bd 0c9c f13d da97 cdbc 3b75 d03c
000000a0: 2cd5 05bd 1f74 893d 424e 91bd 4514 16be
000000b0: 222e d7bd ae9d a33d 8cbc f53c 302a cfbd
000000c0: 9247 143d a935 cb3d ea6d bc3c d3b4 ca3c
000000d0: 282a 053d daca 963d be41 093e ac16 a03d
000000e0: 7c99 d6bd a58b b0bc f86d 983c 0d5c febb
000000f0: 4956 04bc 938a 1fbd d67d b63d 2ea4 d13d
00000100: 2b33 1cbe bbe6 c6bd 8584 1abd fec5 173d
00000110: b13e 6dbd 3862 f3bd acf3 a4bd ef96 11be
00000120: bcf4 ff3c 209f 0f3d 978b 51bd aaaf 30bd
00000130: 7978 ae3d 4629 e2bd dd11 82bd 45ad d3bb
00000140: 6aea b63d a0ea 813d c4c1 3fbd 5005 87bd
00000150: ee93 efb8 0690 f8bd 2098 d9bc 2dc2 b33d
00000160: 5fa0 a63c d6c7 c03d 2d13 053e c8ae de3d
00000170: 5e2f d13d 27cb 1ebd 3001 7bbd bdbb 69bd
00000180: c720 63bc 7280 22bd e7b6 99bc 32c6 2c3e
00000190: 2203 4f3d 7c0e 96bd 8b21 efbd 7a4e 5cbc
000001a0: 79f3 09bd e92b ffbc ed8b 8e3d ca7c b0bd
000001b0: 69e7 bcbd fd37 67bc 0fc3 903c 61cb 95bc
000001c0: 877a b43d 2137 a23a 2ceb d43d 2b01 84bd
000001d0: 4473 f33c 6727 243d 2ab6 a33c 54b4 6d3d
000001e0: 30d0 e5bc a692 1dbc cc47 ce3c 40f2 b53c
000001f0: d264 403e 9c05 673d 6f28 1e3e 6609 2bbe
00000200: 84ff bebd 51ad f63d 5345 2b3e 85ab 0ebe
00000210: 0191 f83d a87b fabc 13b9 92bd fb68 543d
00000220: 2a17 a5bd ef61 9ebd 2064 38bb 5c40 ec3d
00000230: 22ff f1bd 5f22 a1bc 90dc e23d 4d03 0fbc
00000240: 9dc5 023e 0450 4dbc 8731 763e 83d1 d33c
00000250: f9b6 ab3d 23ce 913d 558f 283d 6455 13bd
00000260: 0a07 1fbc bc10 113e 35f8 833d a102 d7bd
00000270: 9067 8ebd 8000 5b3e 7d84 1abd 25ac 283d
00000280: 724c 87bd d79c da3d 7ee4 9dbb 5e1f 81bd
00000290: a3c0 863d 171a 493e 397f b23c 7871 36bd
000002a0: bb5b 08be 39f7 043e b694 03bd eeb4 243e
000002b0: c2bb 96bd 20fd 25bd 2b2d 52bd 2d05 8b3d
000002c0: 8025 e1bd 375c e3bd 9c73 9b3b cc55 77bc
000002d0: 36ff db3d b35d 3abd 9207 213d bf42 6fbd
000002e0: 31c4 27bd e682 1ebd 511b a63d 908b b33d
000002f0: 12a3 f53d 0583 923c bced 17be 36c6 453e
00000300: 347f a3bd 8719 363e 61a7 ccbc 64e2 33be
00000310: ca37 103d 2c3d 2abe 1da4 273d aef1 babd
00000320: c1d9 0d3d f0fd 1bbd d122 cd3d 6d9b ec3d
00000330: 3b6c 4f3d 8625 d73c 13df 09be b0d5 b33d
00000340: 9d53 c43d 1fa4 84bc cef3 bebd bcdc f9bd
00000350: 0955 e7bd 125f ea3d e645 ec3d 61d5 9dbd
00000360: afe5 cfbd 0d6f ec3d da2c 183e 792c 343d
00000370: a498 c3bd 2430 45bd 892d 163e ae5d f53b
00000380: d7c8 b7bd 5a99 ffbc 5861 55bc 2629 323d
00000390: 9d9a d5bd d02c d73d 970e dcbd de11 233d
000003a0: 0bef 8fbd 14e9 33bd 6ccc babb a46c 77ba
000003b0: 0a18 8abd 79b6 f7bd b7a9 913d 612d 4f3d
000003c0: 0d91 34bd 4c8d d63c 5c56 e4bd 73e2 033d
000003d0: 8a1f 6a3d bc3d 78bd 52a5 453e ee83 d5bd
000003e0: c94a 09bd d7fb 883d bad3 46be bd1e ea3c
000003f0: 46b3 db3d a836 53bd f182 b63d 564d a83b

sequential_8/dense_Dense16/MatMul f4 [3, 64]
-0.2246781 0.21665467 0.08157673 -0.1190875 0.37008885 -0.4579094 -0.31452644 -0.04631536
-0.32678866 -0.021014664 -0.3595343 0.13667226 -0.28316036 -0.35793227 -0.25671467 -0.019872138
-0.07063831 0.33403924 -0.0171068 -0.1026247 0.24585535 0.07047816 -0.056401525 -0.35004514
-0.10312666 -0.11393115 0.19212818 0.08535155 0.29890487 0.26174134 0.086856395 0.057518266
0.17816697 0.12480569 9.296535e-06 0.43131185 -0.26774698 0.15077761 -0.22753443 -0.036612812
-0.43097126 0.15864423 -0.3891122 -0.12403432 -0.10005892 0.20889585 0.12652716 -0.0101849465
0.21345225 -0.15926374 -0.14422312 0.012966719 0.28476113 -0.21927702 0.03459949 0.0613261
-0.20530607 0.16033083 0.33910328 -0.3857265 0.2838548 -0.3809522 0.10263922 -0.36613852
-0.24548464 -0.28705835 -0.01861471 -0.07018811 -0.19813953 0.08028008 -0.18550898 0.46909145
0.14923951 -0.27242002 0.011391188 0.056010272 0.4680971 0.30881533 0.032360643 -0.082597174
0.006627958 -0.1353666 0.009171104 -0.3283017 0.06216896 -0.09199439 -0.15034431 -0.03158713
-0.054294873 -0.062624216 -0.09545072 -0.30134875 -0.47383556 -0.20387337 -0.22331938 0.1088048
-0.2022996 -0.3468504 -0.25297624 -0.0676359 0.21589181 -0.058117896 0.050368834 0.15351255
0.19799459 -0.37875175 0.06373735 -0.0684265 -0.18178715 0.26644123 0.21975197 -0.11182442
0.1632139 0.057154447 -0.10831824 0.004991207 -0.23072974 0.11340238 0.10541504 -0.120786436
-0.45332032 -0.33680803 -0.057869863 -0.038513545 0.02101115 0.36033475 -0.14728272 0.441371
0.0019931502 0.17516877 -0.31684685 -0.1966833 0.14482465 0.05409433 0.05127353 -0.16409118
-0.0487015 0.12705998 0.1000337 -0.06127768 -0.045865055 0.08948684 0.3175907 0.08579536
0.15981506 -0.07137911 0.10759416 0.15979892 -0.22799945 0.09889166 0.089980066 0.020932335
-0.21911873 0.33472583 -0.061205987 -0.2549718 -0.09931108 -0.24165256 0.11296009 -0.25755963
0.094811186 -0.22323497 -0.13526171 -0.35753232 -0.25271857 -0.31707793 -0.030584976 -0.17057133
-0.3010267 0.1355669 0.005161549 0.039202362 0.2332457 0.044358373 -0.061758853 0.14911409
0.19364293 -0.24533102 0.089248545 -0.0034263104 0.21267094 0.12761034 0.2323457 -0.12948541
-0.14668791 -0.17741443 -0.2860698 0.044684395 -0.17148858 -0.22384201 0.14630976 -0.20420071
00000000: 0412 66be b9da 5d3e b311 a73d 26e4 f3bd
00000010: 497c bd3e 1a73 eabe 9c09 a1be 2db5 3dbd
00000020: d850 a7be f226 acbc e114 b8be d0f3 0b3e
00000030: 65fa 90be e642 b7be 1b70 83be e5ca a2bc
00000040: d1aa 90bd 3107 ab3e 8f23 8cbc e62c d2bd
00000050: 81c1 7b3e db56 903d 4905 67bd 1e39 b3be
00000060: 1234 d3bd bc54 e9bd 40bd 443e cbcc ae3d
00000070: 0f0a 993e f602 863e c4e1 b13d 4698 6b3d
00000080: 6771 363e 209a ff3d 50f8 1b37 e8d4 dc3e
00000090: 2216 89be 7265 1a3e c9fe 68be 51f7 15bd
000000a0: 44a8 dcbe a273 223e b739 c7be b505 febd
000000b0: b1eb ccbd cbe8 553e 5690 013e c3de 26bc
000000c0: 3a93 5a3e 0916 23be 3aaf 13be 5d72 543c
000000d0: 36cc 913e 288a 60be 32b8 0d3d 1431 7b3d
000000e0: c13b 52be c42d 243e f29e ad3e f27d c5be
000000f0: 6b55 913e 2b0c c3be 8334 d23d 8276 bbbe
00000100: 5360 7bbe 50f9 92be e07d 98bc c9be 8fbd
00000110: 17e5 4abe e269 a43d 11f6 3dbe c12c f03e
00000120: 3ed2 183e a37a 8bbe 1ba2 3a3c 076b 653d
00000130: 6caa ef3e 0b1d 9e3e 988c 043d b528 a9bd
00000140: 572f d93b 8b9d 0abe 6642 163c 2917 a8be
00000150: e1a4 7e3d 8e67 bcbd dcf3 19be 8261 01bd
00000160: 4d64 5ebd 2041 80bd ab7b c3bd 624a 9abe
00000170: 939a f2be 2ec4 50be d6ad 64be 0dd5 de3d
00000180: a027 4fbe 6096 b1be 1a86 81be b184 8abd
00000190: be12 5d3e 080d 6ebd 8d4f 4e3d 6532 1d3e
000001a0: 18bf 4a3e c0eb c1be ba88 823d 3123 8cbd
000001b0: 6926 3abe fc6a 883e a906 613e 3404 e5bd
000001c0: 8b21 273e c81a 6a3d f4d5 ddbd 478d a33b
000001d0: 6b44 6cbe 823f e83d d7e3 d73d e15e f7bd
000001e0: 9a19 e8be 1a72 acbe f308 6dbd 61c0 1dbd
000001f0: 931f ac3c cc7d b83e 48d1 16be 61fb e13e
00000200: 839f 023b 715f 333e c039 a2be 5967 49be
00000210: ea4c 143e 0492 5d3d 3104 523d 8507 28be
00000220: 397b 47bd 031c 023e 78de cc3d 4efe 7abd
00000230: ffdc 3bbd e044 b73d 409b a23e 7ab5 af3d
00000240: 8fa6 233e 362f 92bd 545a dc3d 54a2 233e
00000250: b078 69be b687 ca3d 7847 b83d 4a7a ab3c
00000260: a960 60be 2f61 ab3e 21b3 7abd aa8b 82be
00000270: 9c63 cbbd c573 77be 9f57 e73d dbde 83be
00000280: 5e2c c23d b597 64be 0c82 0abe 7a0e b7be
00000290: 5464 81be 0a58 a2be 588d fabc 40aa 2ebe
000002a0: 2c20 9abe 0dd2 0a3e 3622 a93b a892 203d
000002b0: f6d7 6e3e 20b1 353d daf6 7cbd 5db1 183e
000002c0: 554a 463e 0e38 7bbe f1c7 b63d f38b 60bb
000002d0: 69c6 593e 49ac 023e 08ec 6d3e d397 04be
000002e0: 5b35 16be 21ac 35be be77 92be fc06 373d
000002f0: b49a 2fbe d736 65be 3ad2 153e fe19 51be
